…
evaluation = dict(interval=4000, metric='mIoU')
log_config = dict(
    interval=50, hooks=[dict(type='TextLoggerHook', by_epoch=False)])
dist_params = dict(backend='nccl')
log_level = 'INFO'
load_from = None
resume_from = None
workflow = [('train', 1)]
cudnn_benchmark = True
find_unused_parameters = True
work_dir = './work_dirs/segformer_512_nextvit_small_80k'
gpu_ids = range(0, 2)
auto_resume = False

2023-01-24 14:46:58,156 - mmseg - INFO - Set random seed to 945071062, deterministic: False
2023-01-24 14:46:58,756 - mmseg - INFO - EncoderDecoder(
  (backbone): nextvit_small(
    (stem): Sequential(
      (0): ConvBNReLU(
        (conv): Conv2d(3, 64, kernel_size=(3, 3), stride=(2, 2), padding=(1, 1), bias=False)
        (norm): SyncBatchNorm(64, eps=1e-05, momentum=0.1, affine=True, track_running_stats=True)
        (act): ReLU(inplace=True)
      )
      (1): ConvBNReLU(
        (conv): Conv2d(64, 32, kernel_size=(3, 3), stride=(1, 1), padding=(1, 1), bias=False)
        (norm): SyncBatchNorm(32, eps=1e-05, momentum=0.1, affine=True, track_running_stats=True)
        (act): ReLU(inplace=True)
      )
      (2): ConvBNReLU(
        (conv): Conv2d(32, 64, kernel_size=(3, 3), stride=(1, 1), padding=(1, 1), bias=False)
        (norm): SyncBatchNorm(64, eps=1e-05, momentum=0.1, affine=True, track_running_stats=True)
        (act): ReLU(inplace=True)
      )
      (3): ConvBNReLU(
        (conv): Conv2d(64, 64, kernel_size=(3, 3), stride=(2, 2), padding=(1, 1), bias=False)
        (norm): SyncBatchNorm(64, eps=1e-05, momentum=0.1, affine=True, track_running_stats=True)
        (act): ReLU(inplace=True)
      )
    )
    (features): Sequential(
      (0): NCB(
        (patch_embed): PatchEmbed(
          (avgpool): Identity()
          (conv): Conv2d(64, 96, kernel_size=(1, 1), stride=(1, 1), bias=False)
          (norm): SyncBatchNorm(96, eps=1e-05, momentum=0.1, affine=True, track_running_stats=True)
        )
        (mhca): MHCA(
          (group_conv3x3): Conv2d(96, 96, kernel_size=(3, 3), stride=(1, 1), padding=(1, 1), groups=3, bias=False)
          (norm): SyncBatchNorm(96, eps=1e-05, momentum=0.1, affine=True, track_running_stats=True)
          (act): ReLU(inplace=True)
          (projection): Conv2d(96, 96, kernel_size=(1, 1), stride=(1, 1), bias=False)
        )
        (attention_path_dropout): DropPath(drop_prob=0.000)
        (norm): SyncBatchNorm(96, eps=1e-05, momentum=0.1, affine=True, track_running_stats=True)
        (mlp): Mlp(
          (conv1): Conv2d(96, 288, kernel_size=(1, 1), stride=(1, 1))
          (act): ReLU(inplace=True)
          (conv2): Conv2d(288, 96, kernel_size=(1, 1), stride=(1, 1))
          (drop): Dropout(p=0, inplace=False)
        )
        (mlp_path_dropout): DropPath(drop_prob=0.000)
      )
      (1): NCB(
        (patch_embed): PatchEmbed(
          (avgpool): Identity()
          (conv): Identity()
          (norm): Identity()
        )
        (mhca): MHCA(
          (group_conv3x3): Conv2d(96, 96, kernel_size=(3, 3), stride=(1, 1), padding=(1, 1), groups=3, bias=False)
          (norm): SyncBatchNorm(96, eps=1e-05, momentum=0.1, affine=True, track_running_stats=True)
          (act): ReLU(inplace=True)
          (projection): Conv2d(96, 96, kernel_size=(1, 1), stride=(1, 1), bias=False)
        )
        (attention_path_dropout): DropPath(drop_prob=0.011)
        (norm): SyncBatchNorm(96, eps=1e-05, momentum=0.1, affine=True, track_running_stats=True)
        (mlp): Mlp(
          (conv1): Conv2d(96, 288, kernel_size=(1, 1), stride=(1, 1))
          (act): ReLU(inplace=True)
          (conv2): Conv2d(288, 96, kernel_size=(1, 1), stride=(1, 1))
          (drop): Dropout(p=0, inplace=False)
        )
        (mlp_path_dropout): DropPath(drop_prob=0.011)
      )
      (2): NCB(
        (patch_embed): PatchEmbed(
          (avgpool): Identity()
          (conv): Identity()
          (norm): Identity()
        )
        (mhca): MHCA(
          (group_conv3x3): Conv2d(96, 96, kernel_size=(3, 3), stride=(1, 1), padding=(1, 1), groups=3, bias=False)
          (norm): SyncBatchNorm(96, eps=1e-05, momentum=0.1, affine=True, track_running_stats=True)
          (act): ReLU(inplace=True)
          (projection): Conv2d(96, 96, kernel_size=(1, 1), stride=(1, 1), bias=False)
        )
        (attention_path_dropout): DropPath(drop_prob=0.021)
        (norm): SyncBatchNorm(96, eps=1e-05, momentum=0.1, affine=True, track_running_stats=True)
        (mlp): Mlp(
          (conv1): Conv2d(96, 288, kernel_size=(1, 1), stride=(1, 1))
          (act): ReLU(inplace=True)
          (conv2): Conv2d(288, 96, kernel_size=(1, 1), stride=(1, 1))
          (drop): Dropout(p=0, inplace=False)
        )
        (mlp_path_dropout): DropPath(drop_prob=0.021)
      )
      (3): NCB(
        (patch_embed): PatchEmbed(
          (avgpool): AvgPool2d(kernel_size=(2, 2), stride=2, padding=0)
          (conv): Conv2d(96, 192, kernel_size=(1, 1), stride=(1, 1), bias=False)
          (norm): SyncBatchNorm(192, eps=1e-05, momentum=0.1, affine=True, track_running_stats=True)
        )
        (mhca): MHCA(
          (group_conv3x3): Conv2d(192, 192, kernel_size=(3, 3), stride=(1, 1), padding=(1, 1), groups=6, bias=False)
          (norm): SyncBatchNorm(192, eps=1e-05, momentum=0.1, affine=True, track_running_stats=True)
          (act): ReLU(inplace=True)
          (projection): Conv2d(192, 192, kernel_size=(1, 1), stride=(1, 1), bias=False)
        )
        (attention_path_dropout): DropPath(drop_prob=0.032)
        (norm): SyncBatchNorm(192, eps=1e-05, momentum=0.1, affine=True, track_running_stats=True)
        (mlp): Mlp(
          (conv1): Conv2d(192, 576, kernel_size=(1, 1), stride=(1, 1))
          (act): ReLU(inplace=True)
          (conv2): Conv2d(576, 192, kernel_size=(1, 1), stride=(1, 1))
          (drop): Dropout(p=0, inplace=False)
        )
        (mlp_path_dropout): DropPath(drop_prob=0.032)
      )
      (4): NCB(
        (patch_embed): PatchEmbed(
          (avgpool): Identity()
          (conv): Identity()
          (norm): Identity()
        )
        (mhca): MHCA(
          (group_conv3x3): Conv2d(192, 192, kernel_size=(3, 3), stride=(1, 1), padding=(1, 1), groups=6, bias=False)
          (norm): SyncBatchNorm(192, eps=1e-05, momentum=0.1, affine=True, track_running_stats=True)
          (act): ReLU(inplace=True)
          (projection): Conv2d(192, 192, kernel_size=(1, 1), stride=(1, 1), bias=False)
        )
        (attention_path_dropout): DropPath(drop_prob=0.042)
        (norm): SyncBatchNorm(192, eps=1e-05, momentum=0.1, affine=True, track_running_stats=True)
        (mlp): Mlp(
          (conv1): Conv2d(192, 576, kernel_size=(1, 1), stride=(1, 1))
          (act): ReLU(inplace=True)
          (conv2): Conv2d(576, 192, kernel_size=(1, 1), stride=(1, 1))
          (drop): Dropout(p=0, inplace=False)
        )
        (mlp_path_dropout): DropPath(drop_prob=0.042)
      )
      (5): NCB(
        (patch_embed): PatchEmbed(
          (avgpool): Identity()
          (conv): Identity()
          (norm): Identity()
        )
        (mhca): MHCA(
          (group_conv3x3): Conv2d(192, 192, kernel_size=(3, 3), stride=(1, 1), padding=(1, 1), groups=6, bias=False)
          (norm): SyncBatchNorm(192, eps=1e-05, momentum=0.1, affine=True, track_running_stats=True)
          (act): ReLU(inplace=True)
          (projection): Conv2d(192, 192, kernel_size=(1, 1), stride=(1, 1), bias=False)
        )
        (attention_path_dropout): DropPath(drop_prob=0.053)
        (norm): SyncBatchNorm(192, eps=1e-05, momentum=0.1, affine=True, track_running_stats=True)
        (mlp): Mlp(
          (conv1): Conv2d(192, 576, kernel_size=(1, 1), stride=(1, 1))
          (act): ReLU(inplace=True)
          (conv2): Conv2d(576, 192, kernel_size=(1, 1), stride=(1, 1))
          (drop): Dropout(p=0, inplace=False)
        )
        (mlp_path_dropout): DropPath(drop_prob=0.053)
      )
      (6): NTB(
        (patch_embed): PatchEmbed(
          (avgpool): Identity()
          (conv): Identity()
          (norm): Identity()
        )
        (norm1): SyncBatchNorm(192, eps=1e-05, momentum=0.1, affine=True, track_running_stats=True)
        (e_mhsa): E_MHSA(
          (q): Linear(in_features=192, out_features=192, bias=True)
          (k): Linear(in_features=192, out_features=192, bias=True)
          (v): Linear(in_features=192, out_features=192, bias=True)
          (proj): Linear(in_features=192, out_features=192, bias=True)
          (attn_drop): Dropout(p=0, inplace=False)
          (proj_drop): Dropout(p=0, inplace=False)
          (sr): AvgPool1d(kernel_size=(16,), stride=(16,), padding=(0,))
          (norm): SyncBatchNorm(192, eps=1e-05, momentum=0.1, affine=True, track_running_stats=True)
        )
        (mhsa_path_dropout): DropPath(drop_prob=0.047)
        (projection): PatchEmbed(
          (avgpool): Identity()
          (conv): Conv2d(192, 64, kernel_size=(1, 1), stride=(1, 1), bias=False)
          (norm): SyncBatchNorm(64, eps=1e-05, momentum=0.1, affine=True, track_running_stats=True)
        )
        (mhca): MHCA(
          (group_conv3x3): Conv2d(64, 64, kernel_size=(3, 3), stride=(1, 1), padding=(1, 1), groups=2, bias=False)
          (norm): SyncBatchNorm(64, eps=1e-05, momentum=0.1, affine=True, track_running_stats=True)
          (act): ReLU(inplace=True)
          (projection): Conv2d(64, 64, kernel_size=(1, 1), stride=(1, 1), bias=False)
        )
        (mhca_path_dropout): DropPath(drop_prob=0.016)
        (norm2): SyncBatchNorm(256, eps=1e-05, momentum=0.1, affine=True, track_running_stats=True)
        (mlp): Mlp(
          (conv1): Conv2d(256, 512, kernel_size=(1, 1), stride=(1, 1))
          (act): ReLU(inplace=True)
          (conv2): Conv2d(512, 256, kernel_size=(1, 1), stride=(1, 1))
          (drop): Dropout(p=0, inplace=False)
        )
        (mlp_path_dropout): DropPath(drop_prob=0.063)
      )
      (7): NCB(
        (patch_embed): PatchEmbed(
          (avgpool): AvgPool2d(kernel_size=(2, 2), stride=2, padding=0)
          (conv): Conv2d(256, 384, kernel_size=(1, 1), stride=(1, 1), bias=False)
          (norm): SyncBatchNorm(384, eps=1e-05, momentum=0.1, affine=True, track_running_stats=True)
        )
        (mhca): MHCA(
          (group_conv3x3): Conv2d(384, 384, kernel_size=(3, 3), stride=(1, 1), padding=(1, 1), groups=12, bias=False)
          (norm): SyncBatchNorm(384, eps=1e-05, momentum=0.1, affine=True, track_running_stats=True)
          (act): ReLU(inplace=True)
          (projection): Conv2d(384, 384, kernel_size=(1, 1), stride=(1, 1), bias=False)
        )
        (attention_path_dropout): DropPath(drop_prob=0.074)
        (norm): SyncBatchNorm(384, eps=1e-05, momentum=0.1, affine=True, track_running_stats=True)
        (mlp): Mlp(
          (conv1): Conv2d(384, 1152, kernel_size=(1, 1), stride=(1, 1))
          (act): ReLU(inplace=True)
          (conv2): Conv2d(1152, 384, kernel_size=(1, 1), stride=(1, 1))
          (drop): Dropout(p=0, inplace=False)
        )
        (mlp_path_dropout): DropPath(drop_prob=0.074)
      )
      (8): NCB(
        (patch_embed): PatchEmbed(
          (avgpool): Identity()
          (conv): Identity()
          (norm): Identity()
        )
        (mhca): MHCA(
          (group_conv3x3): Conv2d(384, 384, kernel_size=(3, 3), stride=(1, 1), padding=(1, 1), groups=12, bias=False)
          (norm): SyncBatchNorm(384, eps=1e-05, momentum=0.1, affine=True, track_running_stats=True)
          (act): ReLU(inplace=True)
          (projection): Conv2d(384, 384, kernel_size=(1, 1), stride=(1, 1), bias=False)
        )
        (attention_path_dropout): DropPath(drop_prob=0.084)
        (norm): SyncBatchNorm(384, eps=1e-05, momentum=0.1, affine=True, track_running_stats=True)
        (mlp): Mlp(
          (conv1): Conv2d(384, 1152, kernel_size=(1, 1), stride=(1, 1))
          (act): ReLU(inplace=True)
          (conv2): Conv2d(1152, 384, kernel_size=(1, 1), stride=(1, 1))
          (drop): Dropout(p=0, inplace=False)
        )
        (mlp_path_dropout): DropPath(drop_prob=0.084)
      )
      (9): NCB(
        (patch_embed): PatchEmbed(
          (avgpool): Identity()
          (conv): Identity()
          (norm): Identity()
        )
        (mhca): MHCA(
          (group_conv3x3): Conv2d(384, 384, kernel_size=(3, 3), stride=(1, 1), padding=(1, 1), groups=12, bias=False)
          (norm): SyncBatchNorm(384, eps=1e-05, momentum=0.1, affine=True, track_running_stats=True)
          (act): ReLU(inplace=True)
          (projection): Conv2d(384, 384, kernel_size=(1, 1), stride=(1, 1), bias=False)
        )
        (attention_path_dropout): DropPath(drop_prob=0.095)
        (norm): SyncBatchNorm(384, eps=1e-05, momentum=0.1, affine=True, track_running_stats=True)
        (mlp): Mlp(
          (conv1): Conv2d(384, 1152, kernel_size=(1, 1), stride=(1, 1))
          (act): ReLU(inplace=True)
          (conv2): Conv2d(1152, 384, kernel_size=(1, 1), stride=(1, 1))
          (drop): Dropout(p=0, inplace=False)
        )
        (mlp_path_dropout): DropPath(drop_prob=0.095)
      )
      (10): NCB(
        (patch_embed): PatchEmbed(
          (avgpool): Identity()
          (conv): Identity()
          (norm): Identity()
        )
        (mhca): MHCA(
          (group_conv3x3): Conv2d(384, 384, kernel_size=(3, 3), stride=(1, 1), padding=(1, 1), groups=12, bias=False)
          (norm): SyncBatchNorm(384, eps=1e-05, momentum=0.1, affine=True, track_running_stats=True)
          (act): ReLU(inplace=True)
          (projection): Conv2d(384, 384, kernel_size=(1, 1), stride=(1, 1), bias=False)
        )
        (attention_path_dropout): DropPath(drop_prob=0.105)
        (norm): SyncBatchNorm(384, eps=1e-05, momentum=0.1, affine=True, track_running_stats=True)
        (mlp): Mlp(
          (conv1): Conv2d(384, 1152, kernel_size=(1, 1), stride=(1, 1))
          (act): ReLU(inplace=True)
          (conv2): Conv2d(1152, 384, kernel_size=(1, 1), stride=(1, 1))
          (drop): Dropout(p=0, inplace=False)
        )
        (mlp_path_dropout): DropPath(drop_prob=0.105)
      )
      (11): NTB(
        (patch_embed): PatchEmbed(
          (avgpool): Identity()
          (conv): Identity()
          (norm): Identity()
        )
        (norm1): SyncBatchNorm(384, eps=1e-05, momentum=0.1, affine=True, track_running_stats=True)
        (e_mhsa): E_MHSA(
          (q): Linear(in_features=384, out_features=384, bias=True)
          (k): Linear(in_features=384, out_features=384, bias=True)
          (v): Linear(in_features=384, out_features=384, bias=True)
          (proj): Linear(in_features=384, out_features=384, bias=True)
          (attn_drop): Dropout(p=0, inplace=False)
          (proj_drop): Dropout(p=0, inplace=False)
          (sr): AvgPool1d(kernel_size=(4,), stride=(4,), padding=(0,))
          (norm): SyncBatchNorm(384, eps=1e-05, momentum=0.1, affine=True, track_running_stats=True)
        )
        (mhsa_path_dropout): DropPath(drop_prob=0.087)
        (projection): PatchEmbed(
          (avgpool): Identity()
          (conv): Conv2d(384, 128, kernel_size=(1, 1), stride=(1, 1), bias=False)
          (norm): SyncBatchNorm(128, eps=1e-05, momentum=0.1, affine=True, track_running_stats=True)
        )
        (mhca): MHCA(
          (group_conv3x3): Conv2d(128, 128, kernel_size=(3, 3), stride=(1, 1), padding=(1, 1), groups=4, bias=False)
          (norm): SyncBatchNorm(128, eps=1e-05, momentum=0.1, affine=True, track_running_stats=True)
          (act): ReLU(inplace=True)
          (projection): Conv2d(128, 128, kernel_size=(1, 1), stride=(1, 1), bias=False)
        )
        (mhca_path_dropout): DropPath(drop_prob=0.029)
        (norm2): SyncBatchNorm(512, eps=1e-05, momentum=0.1, affine=True, track_running_stats=True)
        (mlp): Mlp(
          (conv1): Conv2d(512, 1024, kernel_size=(1, 1), stride=(1, 1))
          (act): ReLU(inplace=True)
          (conv2): Conv2d(1024, 512, kernel_size=(1, 1), stride=(1, 1))
          (drop): Dropout(p=0, inplace=False)
        )
        (mlp_path_dropout): DropPath(drop_prob=0.116)
      )
      (12): NCB(
        (patch_embed): PatchEmbed(
          (avgpool): Identity()
          (conv): Conv2d(512, 384, kernel_size=(1, 1), stride=(1, 1), bias=False)
          (norm): SyncBatchNorm(384, eps=1e-05, momentum=0.1, affine=True, track_running_stats=True)
        )
        (mhca): MHCA(
          (group_conv3x3): Conv2d(384, 384, kernel_size=(3, 3), stride=(1, 1), padding=(1, 1), groups=12, bias=False)
          (norm): SyncBatchNorm(384, eps=1e-05, momentum=0.1, affine=True, track_running_stats=True)
          (act): ReLU(inplace=True)
          (projection): Conv2d(384, 384, kernel_size=(1, 1), stride=(1, 1), bias=False)
        )
        (attention_path_dropout): DropPath(drop_prob=0.126)
        (norm): SyncBatchNorm(384, eps=1e-05, momentum=0.1, affine=True, track_running_stats=True)
        (mlp): Mlp(
          (conv1): Conv2d(384, 1152, kernel_size=(1, 1), stride=(1, 1))
          (act): ReLU(inplace=True)
          (conv2): Conv2d(1152, 384, kernel_size=(1, 1), stride=(1, 1))
          (drop): Dropout(p=0, inplace=False)
        )
        (mlp_path_dropout): DropPath(drop_prob=0.126)
      )
      (13): NCB(
        (patch_embed): PatchEmbed(
          (avgpool): Identity()
          (conv): Identity()
          (norm): Identity()
        )
        (mhca): MHCA(
          (group_conv3x3): Conv2d(384, 384, kernel_size=(3, 3), stride=(1, 1), padding=(1, 1), groups=12, bias=False)
          (norm): SyncBatchNorm(384, eps=1e-05, momentum=0.1, affine=True, track_running_stats=True)
          (act): ReLU(inplace=True)
          (projection): Conv2d(384, 384, kernel_size=(1, 1), stride=(1, 1), bias=False)
        )
        (attention_path_dropout): DropPath(drop_prob=0.137)
        (norm): SyncBatchNorm(384, eps=1e-05, momentum=0.1, affine=True, track_running_stats=True)
        (mlp): Mlp(
          (conv1): Conv2d(384, 1152, kernel_size=(1, 1), stride=(1, 1))
          (act): ReLU(inplace=True)
          (conv2): Conv2d(1152, 384, kernel_size=(1, 1), stride=(1, 1))
          (drop): Dropout(p=0, inplace=False)
        )
        (mlp_path_dropout): DropPath(drop_prob=0.137)
      )
      (14): NCB(
        (patch_embed): PatchEmbed(
          (avgpool): Identity()
          (conv): Identity()
          (norm): Identity()
        )
        (mhca): MHCA(
          (group_conv3x3): Conv2d(384, 384, kernel_size=(3, 3), stride=(1, 1), padding=(1, 1), groups=12, bias=False)
          (norm): SyncBatchNorm(384, eps=1e-05, momentum=0.1, affine=True, track_running_stats=True)
          (act): ReLU(inplace=True)
          (projection): Conv2d(384, 384, kernel_size=(1, 1), stride=(1, 1), bias=False)
        )
        (attention_path_dropout): DropPath(drop_prob=0.147)
        (norm): SyncBatchNorm(384, eps=1e-05, momentum=0.1, affine=True, track_running_stats=True)
        (mlp): Mlp(
          (conv1): Conv2d(384, 1152, kernel_size=(1, 1), stride=(1, 1))
          (act): ReLU(inplace=True)
          (conv2): Conv2d(1152, 384, kernel_size=(1, 1), stride=(1, 1))
          (drop): Dropout(p=0, inplace=False)
        )
        (mlp_path_dropout): DropPath(drop_prob=0.147)
      )
      (15): NCB(
        (patch_embed): PatchEmbed(
          (avgpool): Identity()
          (conv): Identity()
          (norm): Identity()
        )
        (mhca): MHCA(
          (group_conv3x3): Conv2d(384, 384, kernel_size=(3, 3), stride=(1, 1), padding=(1, 1), groups=12, bias=False)
          (norm): SyncBatchNorm(384, eps=1e-05, momentum=0.1, affine=True, track_running_stats=True)
          (act): ReLU(inplace=True)
          (projection): Conv2d(384, 384, kernel_size=(1, 1), stride=(1, 1), bias=False)
        )
        (attention_path_dropout): DropPath(drop_prob=0.158)
        (norm): SyncBatchNorm(384, eps=1e-05, momentum=0.1, affine=True, track_running_stats=True)
        (mlp): Mlp(
          (conv1): Conv2d(384, 1152, kernel_size=(1, 1), stride=(1, 1))
          (act): ReLU(inplace=True)
          (conv2): Conv2d(1152, 384, kernel_size=(1, 1), stride=(1, 1))
          (drop): Dropout(p=0, inplace=False)
        )
        (mlp_path_dropout): DropPath(drop_prob=0.158)
      )
      (16): NTB(
        (patch_embed): PatchEmbed(
          (avgpool): Identity()
          (conv): Identity()
          (norm): Identity()
        )
        (norm1): SyncBatchNorm(384, eps=1e-05, momentum=0.1, affine=True, track_running_stats=True)
        (e_mhsa): E_MHSA(
          (q): Linear(in_features=384, out_features=384, bias=True)
          (k): Linear(in_features=384, out_features=384, bias=True)
          (v): Linear(in_features=384, out_features=384, bias=True)
          (proj): Linear(in_features=384, out_features=384, bias=True)
          (attn_drop): Dropout(p=0, inplace=False)
          (proj_drop): Dropout(p=0, inplace=False)
          (sr): AvgPool1d(kernel_size=(4,), stride=(4,), padding=(0,))
          (norm): SyncBatchNorm(384, eps=1e-05, momentum=0.1, affine=True, track_running_stats=True)
        )
        (mhsa_path_dropout): DropPath(drop_prob=0.126)
        (projection): PatchEmbed(
          (avgpool): Identity()
          (conv): Conv2d(384, 128, kernel_size=(1, 1), stride=(1, 1), bias=False)
          (norm): SyncBatchNorm(128, eps=1e-05, momentum=0.1, affine=True, track_running_stats=True)
        )
        (mhca): MHCA(
          (group_conv3x3): Conv2d(128, 128, kernel_size=(3, 3), stride=(1, 1), padding=(1, 1), groups=4, bias=False)
          (norm): SyncBatchNorm(128, eps=1e-05, momentum=0.1, affine=True, track_running_stats=True)
          (act): ReLU(inplace=True)
          (projection): Conv2d(128, 128, kernel_size=(1, 1), stride=(1, 1), bias=False)
        )
        (mhca_path_dropout): DropPath(drop_prob=0.042)
        (norm2): SyncBatchNorm(512, eps=1e-05, momentum=0.1, affine=True, track_running_stats=True)
        (mlp): Mlp(
          (conv1): Conv2d(512, 1024, kernel_size=(1, 1), stride=(1, 1))
          (act): ReLU(inplace=True)
          (conv2): Conv2d(1024, 512, kernel_size=(1, 1), stride=(1, 1))
          (drop): Dropout(p=0, inplace=False)
        )
        (mlp_path_dropout): DropPath(drop_prob=0.168)
      )
      (17): NCB(
        (patch_embed): PatchEmbed(
          (avgpool): AvgPool2d(kernel_size=(2, 2), stride=2, padding=0)
          (conv): Conv2d(512, 768, kernel_size=(1, 1), stride=(1, 1), bias=False)
          (norm): SyncBatchNorm(768, eps=1e-05, momentum=0.1, affine=True, track_running_stats=True)
        )
        (mhca): MHCA(
          (group_conv3x3): Conv2d(768, 768, kernel_size=(3, 3), stride=(1, 1), padding=(1, 1), groups=24, bias=False)
          (norm): SyncBatchNorm(768, eps=1e-05, momentum=0.1, affine=True, track_running_stats=True)
          (act): ReLU(inplace=True)
          (projection): Conv2d(768, 768, kernel_size=(1, 1), stride=(1, 1), bias=False)
        )
        (attention_path_dropout): DropPath(drop_prob=0.179)
        (norm): SyncBatchNorm(768, eps=1e-05, momentum=0.1, affine=True, track_running_stats=True)
        (mlp): Mlp(
          (conv1): Conv2d(768, 2304, kernel_size=(1, 1), stride=(1, 1))
          (act): ReLU(inplace=True)
          (conv2): Conv2d(2304, 768, kernel_size=(1, 1), stride=(1, 1))
          (drop): Dropout(p=0, inplace=False)
        )
        (mlp_path_dropout): DropPath(drop_prob=0.179)
      )
      (18): NCB(
        (patch_embed): PatchEmbed(
          (avgpool): Identity()
          (conv): Identity()
          (norm): Identity()
        )
        (mhca): MHCA(
          (group_conv3x3): Conv2d(768, 768, kernel_size=(3, 3), stride=(1, 1), padding=(1, 1), groups=24, bias=False)
          (norm): SyncBatchNorm(768, eps=1e-05, momentum=0.1, affine=True, track_running_stats=True)
          (act): ReLU(inplace=True)
          (projection): Conv2d(768, 768, kernel_size=(1, 1), stride=(1, 1), bias=False)
        )
        (attention_path_dropout): DropPath(drop_prob=0.189)
        (norm): SyncBatchNorm(768, eps=1e-05, momentum=0.1, affine=True, track_running_stats=True)
        (mlp): Mlp(
          (conv1): Conv2d(768, 2304, kernel_size=(1, 1), stride=(1, 1))
          (act): ReLU(inplace=True)
          (conv2): Conv2d(2304, 768, kernel_size=(1, 1), stride=(1, 1))
          (drop): Dropout(p=0, inplace=False)
        )
        (mlp_path_dropout): DropPath(drop_prob=0.189)
      )
      (19): NTB(
        (patch_embed): PatchEmbed(
          (avgpool): Identity()
          (conv): Identity()
          (norm): Identity()
        )
        (norm1): SyncBatchNorm(768, eps=1e-05, momentum=0.1, affine=True, track_running_stats=True)
        (e_mhsa): E_MHSA(
          (q): Linear(in_features=768, out_features=768, bias=True)
          (k): Linear(in_features=768, out_features=768, bias=True)
          (v): Linear(in_features=768, out_features=768, bias=True)
          (proj): Linear(in_features=768, out_features=768, bias=True)
          (attn_drop): Dropout(p=0, inplace=False)
          (proj_drop): Dropout(p=0, inplace=False)
        )
        (mhsa_path_dropout): DropPath(drop_prob=0.150)
        (projection): PatchEmbed(
          (avgpool): Identity()
          (conv): Conv2d(768, 256, kernel_size=(1, 1), stride=(1, 1), bias=False)
          (norm): SyncBatchNorm(256, eps=1e-05, momentum=0.1, affine=True, track_running_stats=True)
        )
        (mhca): MHCA(
          (group_conv3x3): Conv2d(256, 256, kernel_size=(3, 3), stride=(1, 1), padding=(1, 1), groups=8, bias=False)
          (norm): SyncBatchNorm(256, eps=1e-05, momentum=0.1, affine=True, track_running_stats=True)
          (act): ReLU(inplace=True)
          (projection): Conv2d(256, 256, kernel_size=(1, 1), stride=(1, 1), bias=False)
        )
        (mhca_path_dropout): DropPath(drop_prob=0.050)
        (norm2): SyncBatchNorm(1024, eps=1e-05, momentum=0.1, affine=True, track_running_stats=True)
        (mlp): Mlp(
          (conv1): Conv2d(1024, 2048, kernel_size=(1, 1), stride=(1, 1))
          (act): ReLU(inplace=True)
          (conv2): Conv2d(2048, 1024, kernel_size=(1, 1), stride=(1, 1))
          (drop): Dropout(p=0, inplace=False)
        )
        (mlp_path_dropout): DropPath(drop_prob=0.200)
      )
    )
    (extra_norm_list): Sequential(
      (0): SyncBatchNorm(96, eps=1e-05, momentum=0.1, affine=True, track_running_stats=True)
      (1): SyncBatchNorm(256, eps=1e-05, momentum=0.1, affine=True, track_running_stats=True)
      (2): SyncBatchNorm(512, eps=1e-05, momentum=0.1, affine=True, track_running_stats=True)
      (3): SyncBatchNorm(1024, eps=1e-05, momentum=0.1, affine=True, track_running_stats=True)
    )
    (norm): SyncBatchNorm(1024, eps=1e-05, momentum=0.1, affine=True, track_running_stats=True)
  )
  (decode_head): SegformerHead(
    input_transform=multiple_select, ignore_index=255, align_corners=False
    (loss_decode): CrossEntropyLoss(avg_non_ignore=False)
    (conv_seg): Conv2d(128, 150, kernel_size=(1, 1), stride=(1, 1))
    (dropout): Dropout2d(p=0.1, inplace=False)
    (convs): ModuleList(
      (0): ConvModule(
        (conv): Conv2d(256, 128, kernel_size=(1, 1), stride=(1, 1), bias=False)
        (bn): SyncBatchNorm(128, eps=1e-05, momentum=0.1, affine=True, track_running_stats=True)
        (activate): ReLU(inplace=True)
      )
      (1): ConvModule(
        (conv): Conv2d(256, 128, kernel_size=(1, 1), stride=(1, 1), bias=False)
        (bn): SyncBatchNorm(128, eps=1e-05, momentum=0.1, affine=True, track_running_stats=True)
        (activate): ReLU(inplace=True)
      )
      (2): ConvModule(
        (conv): Conv2d(256, 128, kernel_size=(1, 1), stride=(1, 1), bias=False)
        (bn): SyncBatchNorm(128, eps=1e-05, momentum=0.1, affine=True, track_running_stats=True)
        (activate): ReLU(inplace=True)
      )
      (3): ConvModule(
        (conv): Conv2d(256, 128, kernel_size=(1, 1), stride=(1, 1), bias=False)
        (bn): SyncBatchNorm(128, eps=1e-05, momentum=0.1, affine=True, track_running_stats=True)
        (activate): ReLU(inplace=True)
      )
    )
    (fusion_conv): ConvModule(
      (conv): Conv2d(512, 128, kernel_size=(1, 1), stride=(1, 1), bias=False)
      (bn): SyncBatchNorm(128, eps=1e-05, momentum=0.1, affine=True, track_running_stats=True)
      (activate): ReLU(inplace=True)
    )
  )
  init_cfg={'type': 'Normal', 'std': 0.01, 'override': {'name': 'conv_seg'}}
)
2023-01-24 14:46:59,227 - mmseg - INFO - Loaded 20210 images
